LogisticRegression/logistic_regression.pt (torch, 33319 bytes, 2 tensors)

weight f4 [10, 784]
0	0x3c1f5d9c	0.009726908
1	0x3bf84db8	0.007577624
2	0xbc97f673	-0.018550133
3	0xbd09e00f	-0.033660945
4	0x3cc09cc6	0.023512255
5	0xbbe20fe4	-0.006898867
6	0xbb6976b0	-0.0035623722
7	0xbce24645	-0.027621398
8	0xbc15535c	-0.009114113
9	0x3c9f2c3a	0.019430269
10	0xbca5d263	-0.020241922
11	0x3b4ed810	0.0031561889
12	0xbc02493a	-0.007952029
13	0xb8a3b423	-7.805999e-05
14	0x3c1ee50c	0.009698164
15	0x3cf17094	0.029472627
16	0xbc4af906	-0.012388473
17	0xbd0eda9d	-0.034876455
18	0x3cd91b9a	0.02650242
19	0x3cd264dc	0.02568286
20	0xbb3423b0	-0.0027487092
21	0x3bd94278	0.006630238
22	0x3c4c2888	0.012460835
23	0x3cd732f6	0.026269417
24	0x3bbf1430	0.005831264
25	0x3c83a59c	0.01607018
26	0x3d0dc407	0.034610774
27	0x3c0d9578	0.008641593
28	0x3d07612f	0.033051666
29	0x3ca1a368	0.019731238
30	0x3ca92c28	0.020650938
31	0xbcf4388c	-0.02981212
32	0xbce62eda	-0.028098512
33	0xbbe0c559	-0.006859463
34	0xbcc9e01f	-0.024643002
35	0x3d0d7746	0.034537576
36	0xbcf2a9d2	-0.029621992
37	0x3c916181	0.017746689
38	0x3c9ad7f9	0.018901812
39	0xbc653fbe	-0.013992248
40	0xbd08556e	-0.033284597
41	0xbbf89d38	-0.0075871013
42	0xbc85849c	-0.016298585
43	0xbc7cf5c8	-0.015439458
44	0x3ab627c9	0.0013897355
45	0xbca450fe	-0.020058151
46	0x3c3fb8ae	0.011701746
47	0xbca5f070	-0.020256251
48	0xbbdfd45d	-0.0068307356
49	0xbc903434	-0.017603017
50	0xbcec3e9c	-0.028838448
51	0xbce7ebb2	-0.02831063
52	0x3b1482f0	0.0022661053
53	0xb9f1ff00	-0.00046157092
54	0x3c2c3678	0.010511033
55	0x3a8bfbc0	0.0010679886
56	0x3ce11666	0.0274765
57	0x3d0f421b	0.034975152
58	0xbc956c1c	-0.018240027
59	0xbbfe721d	-0.007765068
60	0xbcd3c0c5	-0.025848756
61	0xbb075727	-0.0020651312
62	0x3b5e0ef5	0.0033883427
63	0x3cbfbcc7	0.023405446
64	0x3c02983c	0.007970866
65	0x3cf92c10	0.030416518
66	0x3cf18a2b	0.029484829
67	0xbd268295	-0.040651876
68	0xbcf90231	-0.030396553
69	0xbd276eaa	-0.04087702
70	0xbaad8c35	-0.0013240637
71	0x3bf9d98e	0.0076248115
72	0xbc3f4029	-0.011673012
73	0x3b89f9de	0.0042106947
74	0xbd45a705	-0.048254985
75	0xbd14ef1d	-0.03636085
76	0x3c07e855	0.008295138
77	0x3c3b3554	0.011426289
78	0x3b54be3b	0.003246202
79	0xbc01af62	-0.00791535
80	0x3c4cf274	0.012508977
81	0xbbd8659f	-0.006603911
82	0x3c96f9a2	0.018429581
83	0xbca4d7b3	-0.020122385
84	0xbc6f03b8	-0.014588289
85	0x3cfd4836	0.030918222
86	0x3cb71585	0.022349128
87	0x3b97fe6a	0.004638483
88	0x3bb16f4a	0.005414878
89	0xbce26e59	-0.027640508
90	0xbb8e8535	-0.0043493756
91	0x3c592caa	0.013255278
92	0x3bbeca5e	0.005822464
93	0x3c409f60	0.011756748
94	0x3bebdea1	0.0071981703
95	0xbca19047	-0.019722117
96	0xbbf9f15c	-0.007627649
97	0xbd6ec760	-0.058295608
98	0xbd10cea2	-0.03535331
99	0xbd8549d8	-0.06508225
100	0xbcc8d1f8	-0.024514183
101	0xbd439f87	-0.04775956
102	0xbdc4d08c	-0.0961009
103	0xbdaa60bd	-0.083192326
104	0xbd70211e	-0.058625333
105	0xbd85c5b1	-0.06531847
106	0xbd20c1eb	-0.039247435
107	0x3b7322e0	0.0037099645
108	0xbcca150e	-0.024668243
109	0x3ced2c0b	0.028951665
110	0x3c344ade	0.011004178
111	0x3c37b604	0.0112128295
112	0xbc98da67	-0.01865883
113	0xbb6dfc39	-0.0036313666
114	0x39fd9b28	0.0004837152
115	0x3b6864c6	0.0035460456
116	0x3ce93003	0.028465277
117	0xbc793054	-0.015209276
118	0xbcb80653	-0.022463953
119	0xbccf824a	-0.025330681
120	0xbc52ec3a	-0.012873704
121	0xbd32e254	-0.043672875
122	0xbce42501	-0.027849676
123	0xbd708147	-0.05871704
124	0xbd7ca76a	-0.061683096
125	0xbb896820	-0.004193321
126	0x3c9c6131	0.019089313
127	0xbc1f2864	-0.00971422
128	0xbc926571	-0.017870637
129	0xbd209405	-0.039203662
130	0xbd7ec663	-0.062200915
131	0xbca64011	-0.020294221
132	0xbd146fae	-0.03623932
133	0xbd5d2800	-0.053993225
134	0xbc778496	-0.015107295
135	0xbd1bca1f	-0.038034555
136	0x3c885238	0.016640767
137	0xbd0b9d78	-0.03408572
138	0xbaabc495	-0.0013104851
139	0xbd01e62e	-0.031713657
140	0x3bd4f870	0.0064993426
141	0x3cef99a2	0.029248063
142	0xbcd64a9e	-0.026158627
143	0xbc4810f4	-0.012211073
144	0x3bc10da6	0.0058915196
145	0xbd2e5f15	-0.042571146
146	0xbc34a9fd	-0.0110268565
147	0xbbd85b7a	-0.0066027017
148	0xbcec7d8e	-0.028868463
149	0xbdaadd4c	-0.0834299
150	0xbd827670	-0.063702464
151	0x3c30c9f7	0.01079034
152	0x3baf6f12	0.005353817
153	0x3dc3d5ba	0.095622495
154	0x3dd1341e	0.10215019
155	0x3dce7ddb	0.10082599
156	0x3e08f074	0.13372976
157	0x3e1586c2	0.14602187
158	0x3da6dcaf	0.08147561
159	0x3ca55f14	0.020186938
160	0x3c979f62	0.018508617
161	0xbc08f300	-0.008358717
162	0x3c3d1097	0.0115396
163	0xbd78cfed	-0.06074517
164	0xbd380614	-0.04492767
165	0x3bee11da	0.0072653117
166	0x3ca1df6c	0.019759856
167	0xbc86e2c1	-0.016465547
168	0x3c6a0014	0.014282245
169	0xbbb6b3cf	-0.005575634
170	0x3ca929fc	0.020649903
171	0xbc754012	-0.014968889
172	0xbc1bb0d9	-0.009502613
173	0xbc8c6b85	-0.017141113
174	0xbc25e091	-0.010124342
175	0xbd97b8f2	-0.074083224
176	0xbd372ac4	-0.04471852
177	0xbd6e9b39	-0.0582535
178	0x39a0c1b1	0.0003066189
179	0x3ca6c031	0.020355316
180	0x3be16db5	0.006879533
181	0x3dfb73ec	0.1227797
182	0x3de49719	0.11161632
183	0x3de01ebb	0.10943361
184	0x3e2019a0	0.15634775
185	0x3e4600dc	0.19336265
186	0x3df552ca	0.119786814
187	0x3d998c2c	0.07497439
188	0x3d722da6	0.059125565
189	0x3d5d6554	0.054051712
190	0x3c8cd59d	0.017191702
191	0xbbf382f7	-0.0074313837
192	0xbd2b7a62	-0.04186476
193	0xbbec1c26	-0.007205504
194	0xbc56bcfb	-0.01310658
195	0xbcb3df98	-0.021957204
196	0xbcc185e3	-0.023623412
197	0x3ccbef22	0.0248943
198	0x3bf83756	0.007574956
199	0xbca3202b	-0.0199128
200	0xbc7ad358	-0.015309177
201	0xbd191fa7	-0.0373837
202	0xbd5322c2	-0.05154682
203	0xbda0cce6	-0.07851581
204	0xbd590557	-0.052983608
205	0xbc8a4ea0	-0.016883194
206	0xbd323514	-0.04350765
207	0x3d664d05	0.056225795
208	0x3c9f9307	0.019479288
209	0x3d8c6319	0.06854839
210	0x3d74f396	0.059802614
211	0x3dcd9321	0.10037828
212	0x3e25105d	0.16119523
213	0x3e4bc59c	0.198996
214	0x3e31ddfc	0.17369837
215	0x3dbd651e	0.09247802
216	0x3d8352ef	0.06412303
217	0x3da2f806	0.07957463
218	0x3dd16e3c	0.10226104
219	0x3bdf06f9	0.006806251
220	0xbd828e7d	-0.06374834
221	0xbd3afdfc	-0.045652375
222	0xbca87d93	-0.020567691
223	0xbd139344	-0.036029115
224	0xbcf35b09	-0.029706495
225	0x3d0a602d	0.033783127
226	0xbad89de9	-0.0016526553
227	0xbca0273e	-0.019549962
228	0x3be9f632	0.0071399445
229	0xbd51239b	-0.051059347
230	0xbd911fd0	-0.07086146
231	0xbd9a8608	-0.07545096
232	0xbcc4921b	-0.02399545
233	0xbb0a6447	-0.00211169
234	0x3d097175	0.033555467
235	0x3c0090cb	0.007847021
236	0x3cb0f9bf	0.021603463
237	0x3d0e83cd	0.034793664
238	0x3d699278	0.05702445
239	0x3e133f25	0.14379556
240	0x3e23a76f	0.1598184
241	0x3e4a5dc7	0.19762336
242	0x3e4081b7	0.18799482
243	0x3dbd51b7	0.092441015
244	0x3dc5d838	0.09660381
245	0x3d8c8376	0.06861012
246	0x3d95b719	0.07310314
247	0x3d5c3174	0.0537581
248	0xbd61c188	-0.055116206
249	0xbd2ef842	-0.042717226
250	0xbd33dfc5	-0.043914575
251	0xbd060a18	-0.03272447
252	0xbd124875	-0.03571363
253	0x3cd657ac	0.026164852
254	0x3ce3f3ad	0.027826155
255	0x3c00680c	0.007837307

bias f4 [10]
0	0xbe5cdeff	-0.21569441
1	0x3e8ff65f	0.28117654
2	0x3afebad8	0.0019434346
3	0xbe3c2332	-0.18372801
4	0x3daa2b48	0.083090365
5	0x3f31d95e	0.694723
6	0xbd5514c1	-0.052021746
7	0x3ebb882b	0.36627325
8	0xbf5a5f60	-0.8530178
9	0xbdf30b94	-0.11867443
